…
plots/pred_trade_signals_plot.png", "test_trade_signals_plot_save_path": "plots/test_trade_signals_plot.png", "pred_days_difference_bar_chart_save_path": "plots/pred_days_difference_bar_chart.png", "roc_pr_curve_save_path": "plots/roc_pr_curve.png", "report_save_path": "reports/report.html", "summary_save_path": "reports/summary.json"}, "confusion_matrix_info": "{\"TP\": 918, \"FP\": 95, \"FN\": 268, \"TN\": 191, \"Accuracy\": 0.7533967391304348, \"Precision\": 0.7209312609818512, \"Recall\": 0.6611705776969118, \"F1 Score\": 0.6738383218729684}", "model_summary": "\"ModelDNN_5layers(\\n  (fc1): Linear(in_features=960, out_features=256, bias=True)\\n  (fc2): Linear(in_features=256, out_features=128, bias=True)\\n  (fc3): Linear(in_features=128, out_features=64, bias=True)\\n  (fc4): Linear(in_features=64, out_features=32, bias=True)\\n  (fc5): Linear(in_features=32, out_features=16, bias=True)\\n  (ln1): LayerNorm((256,), eps=1e-05, elementwise_affine=True)\\n  (ln2): LayerNorm((128,), eps=1e-05, elementwise_affine=True)\\n  (ln3): LayerNorm((64,), eps=1e-05, elementwise_affine=True)\\n  (ln4): LayerNorm((32,), eps=1e-05, elementwise_affine=True)\\n  (ln5): LayerNorm((16,), eps=1e-05, elementwise_affine=True)\\n  (dropout): Dropout(p=0.5, inplace=False)\\n), \\nNumber of parameter: 290768\"", "backtesting_report": "{\"sharpe_ratio\": {\"sharperatio\": -0.3232148287815233}, \"drawdown\": {\"len\": 1184, \"drawdown\": 19.27474424379928, \"moneydown\": 1993.0362829589867, \"max\": {\"len\": 1184, \"drawdown\": 43.12679340575359, \"moneydown\": 4459.37247924805}},
…
