…
lots/pred_trade_signals_plot.png", "test_trade_signals_plot_save_path": "plots/test_trade_signals_plot.png", "pred_days_difference_bar_chart_save_path": "plots/pred_days_difference_bar_chart.png", "roc_pr_curve_save_path": "plots/roc_pr_curve.png", "report_save_path": "reports/report.html", "summary_save_path": "reports/summary.json"}, "confusion_matrix_info": "{\"TP\": 903, \"FP\": 110, \"FN\": 149, \"TN\": 310, \"Accuracy\": 0.8240489130434783, \"Precision\": 0.7982301285533224, \"Recall\": 0.7833964560925829, \"F1 Score\": 0.7899616281984536}", "model_summary": "\"ModelDNN_5layers(\\n  (fc1): Linear(in_features=960, out_features=256, bias=True)\\n  (fc2): Linear(in_features=256, out_features=128, bias=True)\\n  (fc3): Linear(in_features=128, out_features=64, bias=True)\\n  (fc4): Linear(in_features=64, out_features=32, bias=True)\\n  (fc5): Linear(in_features=32, out_features=16, bias=True)\\n  (ln1): LayerNorm((256,), eps=1e-05, elementwise_affine=True)\\n  (ln2): LayerNorm((128,), eps=1e-05, elementwise_affine=True)\\n  (ln3): LayerNorm((64,), eps=1e-05, elementwise_affine=True)\\n  (ln4): LayerNorm((32,), eps=1e-05, elementwise_affine=True)\\n  (ln5): LayerNorm((16,), eps=1e-05, elementwise_affine=True)\\n  (dropout): Dropout(p=0.5, inplace=False)\\n), \\nNumber of parameter: 290768\"", "backtesting_report": "{\"sharpe_ratio\": {\"sharperatio\": -0.42521974919890193}, \"drawdown\": {\"len\": 1462, \"drawdown\": 35.197480403294705, \"moneydown\": 3520.9269531249975, \"max\": {\"len\": 1462, \"drawdown\": 46.27188434847098, \"moneydown\": 4628.738276367187
…
